…
optimizer = dict(type='SGD', lr=0.01, momentum=0.9, weight_decay=0.0005)
optimizer_config = dict()
lr_config = dict(policy='poly', power=0.9, min_lr=0.0001, by_epoch=False)
runner = dict(type='IterBasedRunner', max_iters=320000)
checkpoint_config = dict(by_epoch=False, interval=16000)
evaluation = dict(interval=16000, metric='mIoU')
work_dir = './work_dirs/lraspp_m-v3s-d8_512x1024_320k_cityscapes'
gpu_ids = range(0, 1)

2021-05-22 14:57:44,127 - mmseg - INFO - EncoderDecoder(
  (backbone): MobileNetV3(
    (layer0): ConvModule(
      (conv): Conv2dAdaptivePadding(3, 16, kernel_size=(3, 3), stride=(2, 2), bias=False)
      (bn): BatchNorm2d(16, eps=0.001, momentum=0.1, affine=True, track_running_stats=True)
      (activate): HSwish(
        (act): ReLU6(inplace=True)
      )
    )
    (layer1): InvertedResidualV3(
      (depthwise_conv): ConvModule(
        (conv): Conv2dAdaptivePadding(16, 16, kernel_size=(3, 3), stride=(2, 2), groups=16, bias=False)
        (bn): BatchNorm2d(16, eps=0.001, momentum=0.1, affine=True, track_running_stats=True)
        (activate): ReLU(inplace=True)
      )
      (se): SELayer(
        (global_avgpool): AdaptiveAvgPool2d(output_size=1)
        (conv1): ConvModule(
          (conv): Conv2d(16, 8, kernel_size=(1, 1), stride=(1, 1))
          (activate): ReLU(inplace=True)
        )
        (conv2): ConvModule(
          (conv): Conv2d(8, 16, kernel_size=(1, 1), stride=(1, 1))
          (activate): HSigmoid()
        )
      )
      (linear_conv): ConvModule(
        (conv): Conv2d(16, 16, kernel_size=(1, 1), stride=(1, 1), bias=False)
        (bn): BatchNorm2d(16, eps=0.001, momentum=0.1, affine=True, track_running_stats=True)
      )
    )
    (layer2): InvertedResidualV3(
      (expand_conv): ConvModule(
        (conv): Conv2d(16, 72, kernel_size=(1, 1), stride=(1, 1), bias=False)
        (bn): BatchNorm2d(72, eps=0.001, momentum=0.1, affine=True, track_running_stats=True)
        (activate): ReLU(inplace=True)
      )
      (depthwise_conv): ConvModule(
        (conv): Conv2dAdaptivePadding(72, 72, kernel_size=(3, 3), stride=(2, 2), groups=72, bias=False)
        (bn): BatchNorm2d(72, eps=0.001, momentum=0.1, affine=True, track_running_stats=True)
        (activate): ReLU(inplace=True)
      )
      (linear_conv): ConvModule(
        (conv): Conv2d(72, 24, kernel_size=(1, 1), stride=(1, 1), bias=False)
        (bn): BatchNorm2d(24, eps=0.001, momentum=0.1, affine=True, track_running_stats=True)
      )
    )
    (layer3): InvertedResidualV3(
      (expand_conv): ConvModule(
        (conv): Conv2d(24, 88, kernel_size=(1, 1), stride=(1, 1), bias=False)
        (bn): BatchNorm2d(88, eps=0.001, momentum=0.1, affine=True, track_running_stats=True)
        (activate): ReLU(inplace=True)
      )
      (depthwise_conv): ConvModule(
        (conv): Conv2d(88, 88, kernel_size=(3, 3), stride=(1, 1), padding=(1, 1), groups=88, bias=False)
        (bn): BatchNorm2d(88, eps=0.001, momentum=0.1, affine=True, track_running_stats=True)
        (activate): ReLU(inplace=True)
      )
      (linear_conv): ConvModule(
        (conv): Conv2d(88, 24, kernel_size=(1, 1), stride=(1, 1), bias=False)
        (bn): BatchNorm2d(24, eps=0.001, momentum=0.1, affine=True, track_running_stats=True)
      )
    )
    (layer4): InvertedResidualV3(
      (expand_conv): ConvModule(
        (conv): Conv2d(24, 96, kernel_size=(1, 1), stride=(1, 1), bias=False)
        (bn): BatchNorm2d(96, eps=0.001, momentum=0.1, affine=True, track_running_stats=True)
        (activate): HSwish(
          (act): ReLU6(inplace=True)
        )
      )
      (depthwise_conv): ConvModule(
        (conv): Conv2dAdaptivePadding(96, 96, kernel_size=(5, 5), stride=(1, 1), dilation=(2, 2), groups=96, bias=False)
        (bn): BatchNorm2d(96, eps=0.001, momentum=0.1, affine=True, track_running_stats=True)
        (activate): HSwish(
          (act): ReLU6(inplace=True)
        )
      )
      (se): SELayer(
        (global_avgpool): AdaptiveAvgPool2d(output_size=1)
        (conv1): ConvModule(
          (conv): Conv2d(96, 24, kernel_size=(1, 1), stride=(1, 1))
          (activate): ReLU(inplace=True)
        )
        (conv2): ConvModule(
          (conv): Conv2d(24, 96, kernel_size=(1, 1), stride=(1, 1))
          (activate): HSigmoid()
        )
      )
      (linear_conv): ConvModule(
        (conv): Conv2d(96, 40, kernel_size=(1, 1), stride=(1, 1), bias=False)
        (bn): BatchNorm2d(40, eps=0.001, momentum=0.1, affine=True, track_running_stats=True)
      )
    )
    (layer5): InvertedResidualV3(
      (expand_conv): ConvModule(
        (conv): Conv2d(40, 240, kernel_size=(1, 1), stride=(1, 1), bias=False)
        (bn): BatchNorm2d(240, eps=0.001, momentum=0.1, affine=True, track_running_stats=True)
        (activate): HSwish(
          (act): ReLU6(inplace=True)
        )
      )
      (depthwise_conv): ConvModule(
        (conv): Conv2d(240, 240, kernel_size=(5, 5), stride=(1, 1), padding=(4, 4), dilation=(2, 2), groups=240, bias=False)
        (bn): BatchNorm2d(240, eps=0.001, momentum=0.1, affine=True, track_running_stats=True)
        (activate): HSwish(
          (act): ReLU6(inplace=True)
        )
      )
      (se): SELayer(
        (global_avgpool): AdaptiveAvgPool2d(output_size=1)
        (conv1): ConvModule(
          (conv): Conv2d(240, 64, kernel_size=(1, 1), stride=(1, 1))
          (activate): ReLU(inplace=True)
        )
        (conv2): ConvModule(
          (conv): Conv2d(64, 240, kernel_size=(1, 1), stride=(1, 1))
          (activate): HSigmoid()
        )
      )
      (linear_conv): ConvModule(
        (conv): Conv2d(240, 40, kernel_size=(1, 1), stride=(1, 1), bias=False)
        (bn): BatchNorm2d(40, eps=0.001, momentum=0.1, affine=True, track_running_stats=True)
      )
    )
    (layer6): InvertedResidualV3(
      (expand_conv): ConvModule(
        (conv): Conv2d(40, 240, kernel_size=(1, 1), stride=(1, 1), bias=False)
        (bn): BatchNorm2d(240, eps=0.001, momentum=0.1, affine=True, track_running_stats=True)
        (activate): HSwish(
          (act): ReLU6(inplace=True)
        )
      )
      (depthwise_conv): ConvModule(
        (conv): Conv2d(240, 240, kernel_size=(5, 5), stride=(1, 1), padding=(4, 4), dilation=(2, 2), groups=240, bias=False)
        (bn): BatchNorm2d(240, eps=0.001, momentum=0.1, affine=True, track_running_stats=True)
        (activate): HSwish(
          (act): ReLU6(inplace=True)
        )
      )
      (se): SELayer(
        (global_avgpool): AdaptiveAvgPool2d(output_size=1)
        (conv1): ConvModule(
          (conv): Conv2d(240, 64, kernel_size=(1, 1), stride=(1, 1))
          (activate): ReLU(inplace=True)
        )
        (conv2): ConvModule(
          (conv): Conv2d(64, 240, kernel_size=(1, 1), stride=(1, 1))
          (activate): HSigmoid()
        )
      )
      (linear_conv): ConvModule(
        (conv): Conv2d(240, 40, kernel_size=(1, 1), stride=(1, 1), bias=False)
        (bn): BatchNorm2d(40, eps=0.001, momentum=0.1, affine=True, track_running_stats=True)
      )
    )
    (layer7): InvertedResidualV3(
      (expand_conv): ConvModule(
        (conv): Conv2d(40, 120, kernel_size=(1, 1), stride=(1, 1), bias=False)
        (bn): BatchNorm2d(120, eps=0.001, momentum=0.1, affine=True, track_running_stats=True)
        (activate): HSwish(
          (act): ReLU6(inplace=True)
        )
      )
      (depthwise_conv): ConvModule(
        (conv): Conv2d(120, 120, kernel_size=(5, 5), stride=(1, 1), padding=(4, 4), dilation=(2, 2), groups=120, bias=False)
        (bn): BatchNorm2d(120, eps=0.001, momentum=0.1, affine=True, track_running_stats=True)
        (activate): HSwish(
          (act): ReLU6(inplace=True)
        )
      )
      (se): SELayer(
        (global_avgpool): AdaptiveAvgPool2d(output_size=1)
        (conv1): ConvModule(
          (conv): Conv2d(120, 32, kernel_size=(1, 1), stride=(1, 1))
          (activate): ReLU(inplace=True)
        )
        (conv2): ConvModule(
          (conv): Conv2d(32, 120, kernel_size=(1, 1), stride=(1, 1))
          (activate): HSigmoid()
        )
      )
      (linear_conv): ConvModule(
        (conv): Conv2d(120, 48, kernel_size=(1, 1), stride=(1, 1), bias=False)
        (bn): BatchNorm2d(48, eps=0.001, momentum=0.1, affine=True, track_running_stats=True)
      )
    )
    (layer8): InvertedResidualV3(
      (expand_conv): ConvModule(
        (conv): Conv2d(48, 144, kernel_size=(1, 1), stride=(1, 1), bias=False)
        (bn): BatchNorm2d(144, eps=0.001, momentum=0.1, affine=True, track_running_stats=True)
        (activate): HSwish(
          (act): ReLU6(inplace=True)
        )
      )
      (depthwise_conv): ConvModule(
        (conv): Conv2d(144, 144, kernel_size=(5, 5), stride=(1, 1), padding=(4, 4), dilation=(2, 2), groups=144, bias=False)
        (bn): BatchNorm2d(144, eps=0.001, momentum=0.1, affine=True, track_running_stats=True)
        (activate): HSwish(
          (act): ReLU6(inplace=True)
        )
      )
      (se): SELayer(
        (global_avgpool): AdaptiveAvgPool2d(output_size=1)
        (conv1): ConvModule(
          (conv): Conv2d(144, 40, kernel_size=(1, 1), stride=(1, 1))
          (activate): ReLU(inplace=True)
        )
        (conv2): ConvModule(
          (conv): Conv2d(40, 144, kernel_size=(1, 1), stride=(1, 1))
          (activate): HSigmoid()
        )
      )
      (linear_conv): ConvModule(
        (conv): Conv2d(144, 48, kernel_size=(1, 1), stride=(1, 1), bias=False)
        (bn): BatchNorm2d(48, eps=0.001, momentum=0.1, affine=True, track_running_stats=True)
      )
    )
    (layer9): InvertedResidualV3(
      (expand_conv): ConvModule(
        (conv): Conv2d(48, 288, kernel_size=(1, 1), stride=(1, 1), bias=False)
        (bn): BatchNorm2d(288, eps=0.001, momentum=0.1, affine=True, track_running_stats=True)
        (activate): HSwish(
          (act): ReLU6(inplace=True)
        )
      )
      (depthwise_conv): ConvModule(
        (conv): Conv2dAdaptivePadding(288, 288, kernel_size=(5, 5), stride=(1, 1), dilation=(4, 4), groups=288, bias=False)
        (bn): BatchNorm2d(288, eps=0.001, momentum=0.1, affine=True, track_running_stats=True)
        (activate): HSwish(
          (act): ReLU6(inplace=True)
        )
      )
      (se): SELayer(
        (global_avgpool): AdaptiveAvgPool2d(output_size=1)
        (conv1): ConvModule(
          (conv): Conv2d(288, 72, kernel_size=(1, 1), stride=(1, 1))
          (activate): ReLU(inplace=True)
        )
        (conv2): ConvModule(
          (conv): Conv2d(72, 288, kernel_size=(1, 1), stride=(1, 1))
          (activate): HSigmoid()
        )
      )
      (linear_conv): ConvModule(
        (conv): Conv2d(288, 96, kernel_size=(1, 1), stride=(1, 1), bias=False)
        (bn): BatchNorm2d(96, eps=0.001, momentum=0.1, affine=True, track_running_stats=True)
      )
    )
    (layer10): InvertedResidualV3(
      (expand_conv): ConvModule(
        (conv): Conv2d(96, 576, kernel_size=(1, 1), stride=(1, 1), bias=False)
        (bn): BatchNorm2d(576, eps=0.001, momentum=0.1, affine=True, track_running_stats=True)
        (activate): HSwish(
          (act): ReLU6(inplace=True)
        )
      )
      (depthwise_conv): ConvModule(
        (conv): Conv2d(576, 576, kernel_size=(5, 5), stride=(1, 1), padding=(8, 8), dilation=(4, 4), groups=576, bias=False)
        (bn): BatchNorm2d(576, eps=0.001, momentum=0.1, affine=True, track_running_stats=True)
        (activate): HSwish(
          (act): ReLU6(inplace=True)
        )
      )
      (se): SELayer(
        (global_avgpool): AdaptiveAvgPool2d(output_size=1)
        (conv1): ConvModule(
          (conv): Conv2d(576, 144, kernel_size=(1, 1), stride=(1, 1))
          (activate): ReLU(inplace=True)
        )
        (conv2): ConvModule(
          (conv): Conv2d(144, 576, kernel_size=(1, 1), stride=(1, 1))
          (activate): HSigmoid()
        )
      )
      (linear_conv): ConvModule(
        (conv): Conv2d(576, 96, kernel_size=(1, 1), stride=(1, 1), bias=False)
        (bn): BatchNorm2d(96, eps=0.001, momentum=0.1, affine=True, track_running_stats=True)
      )
    )
    (layer11): InvertedResidualV3(
      (expand_conv): ConvModule(
        (conv): Conv2d(96, 576, kernel_size=(1, 1), stride=(1, 1), bias=False)
        (bn): BatchNorm2d(576, eps=0.001, momentum=0.1, affine=True, track_running_stats=True)
        (activate): HSwish(
          (act): ReLU6(inplace=True)
        )
      )
      (depthwise_conv): ConvModule(
        (conv): Conv2d(576, 576, kernel_size=(5, 5), stride=(1, 1), padding=(8, 8), dilation=(4, 4), groups=576, bias=False)
        (bn): BatchNorm2d(576, eps=0.001, momentum=0.1, affine=True, track_running_stats=True)
        (activate): HSwish(
          (act): ReLU6(inplace=True)
        )
      )
      (se): SELayer(
        (global_avgpool): AdaptiveAvgPool2d(output_size=1)
        (conv1): ConvModule(
          (conv): Conv2d(576, 144, kernel_size=(1, 1), stride=(1, 1))
          (activate): ReLU(inplace=True)
        )
        (conv2): ConvModule(
          (conv): Conv2d(144, 576, kernel_size=(1, 1), stride=(1, 1))
          (activate): HSigmoid()
        )
      )
      (linear_conv): ConvModule(
        (conv): Conv2d(576, 96, kernel_size=(1, 1), stride=(1, 1), bias=False)
        (bn): BatchNorm2d(96, eps=0.001, momentum=0.1, affine=True, track_running_stats=True)
      )
    )
    (layer12): ConvModule(
      (conv): Conv2d(96, 576, kernel_size=(1, 1), stride=(1, 1), dilation=(4, 4), bias=False)
      (bn): BatchNorm2d(576, eps=0.001, momentum=0.1, affine=True, track_running_stats=True)
      (activate): HSwish(
        (act): ReLU6(inplace=True)
      )
    )
  )
  (decode_head): LRASPPHead(
    input_transform=multiple_select, ignore_index=255, align_corners=False
    (loss_decode): CrossEntropyLoss()
    (conv_seg): Conv2d(128, 19, kernel_size=(1, 1), stride=(1, 1))
    (dropout): Dropout2d(p=0.1, inplace=False)
    (convs): Sequential(
      (conv0): Conv2d(16, 32, kernel_size=(1, 1), stride=(1, 1), bias=False)
      (conv1): Conv2d(16, 64, kernel_size=(1, 1), stride=(1, 1), bias=False)
    )
    (conv_ups): Sequential(
      (conv_up0): ConvModule(
        (conv): Conv2d(160, 128, kernel_size=(1, 1), stride=(1, 1), bias=False)
        (bn): BatchNorm2d(128, eps=0.001, momentum=0.1, affine=True, track_running_stats=True)
        (activate): ReLU(inplace=True)
      )
      (conv_up1): ConvModule(
        (conv): Conv2d(192, 128, kernel_size=(1, 1), stride=(1, 1), bias=False)
        (bn): BatchNorm2d(128, eps=0.001, momentum=0.1, affine=True, track_running_stats=True)
        (activate): ReLU(inplace=True)
      )
    )
    (conv_up_input): Conv2d(128, 128, kernel_size=(1, 1), stride=(1, 1))
    (aspp_conv): ConvModule(
      (conv): Conv2d(576, 128, kernel_size=(1, 1), stride=(1, 1), bias=False)
      (bn): BatchNorm2d(128, eps=0.001, momentum=0.1, affine=True, track_running_stats=True)
      (activate): ReLU(inplace=True)
    )
    (image_pool): Sequential(
      (0): AvgPool2d(kernel_size=49, stride=(16, 20), padding=0)
      (1): ConvModule(
        (conv): Conv2d(576, 128, kernel_size=(1, 1), stride=(1, 1), bias=False)
        (activate): Sigmoid()
      )
    )
  )
)
2021-05-22 14:57:44,176 - mmseg - INFO - Loaded 2975 images
2021-05-22 14:57:45,650 - mmseg - INFO - Loaded 500 images
2021-05-22 14:57:45,650 - mmseg - INFO - Start running, host: zhengjie@zhengjie-desktop, work_dir: /home/zhengjie/Desktop/FYP/mmsegmentation/work_dirs/lraspp_m-v3s-d8_512x1024_320k_cityscapes
…
